tuning/saved_model.pth (torch, 201047 bytes, 5 tensors)

net.0.weight f4 [64, 768]
000000 26 a5 4b bf 6e 03 34 bf b3 22 57 bf 2d 0f 02 bf
       -0.7954887 -0.70317733 -0.8403732 -0.50804406
000010 20 64 45 bf 6f 18 3a bf 66 78 45 bf 57 79 2b bf
       -0.77105904 -0.7269353 -0.7713684 -0.66982025
000020 79 a3 3f bf a7 19 7d bf d9 62 ea be 81 e5 0c bf
       -0.74858814 -0.9886727 -0.4577854 -0.55037695
000030 38 05 4a bf 55 09 35 bf 79 4b 2b bf 1f 2b 44 bf
       -0.78914213 -0.70717365 -0.6691204 -0.766283
000040 18 d4 38 bf 05 cb 4d bf 64 62 31 bf b1 82 09 bf
       -0.7219863 -0.8038791 -0.6929076 -0.53715044
000050 30 87 f7 be 3a 0b 5b bf f1 a5 59 bf 68 38 0f bf
       -0.48345327 -0.85564005 -0.8501883 -0.55945444
000060 6d 2a 0c be bd 64 c0 be e2 e0 8e be aa 1c 6d be
       -0.13688059 -0.37576857 -0.27905947 -0.23155466
000070 bf d5 87 be d8 3d 04 bf 54 e1 d8 be 73 ca fe be
       -0.26530263 -0.51656866 -0.42359412 -0.49763831
000080 81 cf 97 3d 3b b6 bc bd 29 6d 05 be 06 05 64 3d
       0.07412625 -0.09214445 -0.13029923 0.055668853
000090 52 59 05 3b cf 17 f9 3c 43 44 b7 3e 72 be 9a bd
       0.0020347429 0.03040686 0.35794267 -0.07555856
0000a0 cf b6 0e 3d 5b 30 df 3e b6 ec a6 3e 68 af 79 3e
       0.03484231 0.4359158 0.3260247 0.24383318
0000b0 cb 9b 98 3e d4 0a c7 3e 13 1c 15 3f 74 b5 93 3e
       0.2980636 0.3887545 0.5824596 0.28849375
0000c0 4d 66 de bb aa bd 76 3e 75 30 e5 3e f6 f8 87 3e
       -0.0067870975 0.24095789 0.44763532 0.2655713
0000d0 ac a0 ca 3e 20 db a8 3e 54 29 05 3f a5 bd 22 be
       0.39575708 0.3297968 0.52016187 -0.15892656
0000e0 46 bf b7 be 73 17 9a bd b1 c9 a0 3d 0f 72 48 3e
       -0.35888118 -0.07524004 0.078509696 0.1957476
0000f0 45 f2 15 3e 3d 94 5f be a4 b0 2f c0 79 65 89 3e
       0.146432 -0.21833892 -2.7451563 0.2683523
000100 02 0d 3d c0 2f 2b 3e c0 85 6f 1e c0 bf df 0a c0
       -2.953919 -2.9713857 -2.4755566 -2.1699064
000110 98 68 24 c0 5b 73 f7 bf ae 5e 8e be 91 e1 d2 3e
       -2.568884 -1.9332079 -0.2780661 0.4118772
000120 35 ff 24 c0 62 72 3f bf d3 dc 92 be 19 02 81 be
       -2.5780766 -0.7478391 -0.286841 -0.25196913
000130 a3 14 5d bc 9a 5e 7a 3e 39 ce 36 3e 44 23 10 be
       -0.01349369 0.2445015 0.17852105 -0.14075953
000140 50 49 08 be 4b a5 e2 bd b7 09 2b be 9d f9 7c be
       -0.13309216 -0.110666834 -0.16702925 -0.24704595
000150 ac ff c2 bd ad 4c c6 bc 51 ec 16 bd b9 17 6a be
       -0.09521422 -0.024206484 -0.036846463 -0.22860612
000160 98 e9 9a be a2 46 f6 bd 3d 74 7a be 6e f4 77 be
       -0.30256343 -0.12025191 -0.24458404 -0.24214336
000170 eb af d4 bd cd bf 2e be 01 d3 96 bd 81 f2 a1 be
       -0.10385116 -0.17065354 -0.073644646 -0.31630328
000180 38 84 53 be 6b b1 a9 be fc 18 01 bf 84 06 70 be
       -0.20655906 -0.33143172 -0.5042875 -0.23439986
000190 b2 f4 c6 be 10 e4 91 be 0d d7 d8 bd a0 46 89 be
       -0.38858563 -0.2849431 -0.10587893 -0.26811695
0001a0 dd 32 02 bf 5f 6a 21 bf a9 c9 1a bf d7 c2 08 bf
       -0.5085886 -0.63052934 -0.6046396 -0.534223
0001b0 5a db 0c bf c8 ed d8 be 32 f4 03 be 63 d0 77 be
       -0.55022204 -0.42368913 -0.12886122 -0.24200587
0001c0 d5 62 26 bf 87 6e 15 bf f9 af ee be 31 42 76 bf
       -0.64994556 -0.58371776 -0.4661863 -0.9619475
0001d0 3a 57 48 bf 6c 3e c2 be 69 cd 48 be 1a 70 67 be
       -0.782581 -0.3793825 -0.19609608 -0.22601357
0001e0 c0 9c b8 be 31 89 d0 be 32 86 cb be c8 a9 0e bf
       -0.3605709 -0.4072967 -0.3975082 -0.55727816
0001f0 2f 37 b1 be e8 65 b0 be 7c 26 7f be 26 1f 9d be
       -0.34612414 -0.34452748 -0.24917024 -0.30687827
000200 bc 46 24 be a4 47 35 3e ca 57 7a 3c b2 d8 2c bd
       -0.16042608 0.1770311 0.01527972 -0.042198844
000210 49 89 17 be a8 c2 88 be 29 a6 2a bf 9e e6 52 bf
       -0.14798464 -0.2671101 -0.6665979 -0.82383144
000220 53 1f ab be cd 65 62 be 53 ac db bd f5 03 3c 3c
       -0.33422336 -0.22109146 -0.107262276 0.011475553
000230 15 32 fb bd a1 ab 37 bf 06 8d b6 be 41 10 ab 3e
       -0.12265412 -0.7174626 -0.35654467 0.33410838
000240 aa 7d d5 bd d5 1b 33 be 7b 62 67 3d c7 1f 12 be
       -0.10424359 -0.17491086 0.056490403 -0.14269935
000250 91 26 0b bc ea 60 f5 bd a2 a8 e5 be 62 88 98 be
       -0.008493082 -0.119813755 -0.4485522 -0.29791552
000260 e4 42 86 be 2e 94 a3 be 34 87 ff be c9 b5 61 be
       -0.26222908 -0.3194899 -0.4990784 -0.22042002
000270 2c 2a d1 be 09 98 cd be 0d 2b 8b be f8 eb 02 bf
       -0.40852487 -0.40155056 -0.27181283 -0.5114131
000280 14 28 cf be 68 d2 ea 3d ee cd df 3c 37 9d 9c 3d
       -0.40460265 0.11465913 0.027319875 0.07647174
000290 d6 89 76 bd 95 e8 3f bd e0 8b 04 3e e6 40 6c be
       -0.060190044 -0.046852667 0.12943983 -0.23071632
0002a0 fe c8 9a bd 5d 00 d6 be a0 17 12 bf 69 93 92 bf
       -0.075578675 -0.41797152 -0.570673 -1.1451236
0002b0 11 d3 4a be 20 a2 5f be e2 b8 3c be 4f 3c 27 bf
       -0.19807078 -0.2183919 -0.18429902 -0.653264
0002c0 d9 d8 96 bf 6b 9d 52 bf 79 78 43 bf 5e 64 4b be
       -1.1784927 -0.8227145 -0.763557 -0.19862506
0002d0 17 4f 19 bf 8c ae b4 bf ed d0 6b 40 5d 62 11 bf
       -0.59886307 -1.4115767 3.6846268 -0.56790715
0002e0 74 91 6f bf 0d cf 6f be 37 16 a4 be 0c e0 d7 be
       -0.9358132 -0.23418827 -0.320482 -0.42163122
0002f0 36 00 09 bf 09 fb 8d bf 73 e6 59 be 47 e2 27 bf
       -0.53515947 -1.1092235 -0.21279316 -0.65579647
000300 0c cd d8 be a7 69 9b 3d ba 42 b5 bb e0 ef b4 3e
       -0.42343938 0.07588511 -0.005531636 0.3533926
000310 f7 e4 5e 3d f9 42 8e 3e 43 e9 83 3e 8b 33 41 3e
       0.054417577 0.2778547 0.25763902 0.18867318
000320 31 8f 8a 3c ac 51 26 be 0b 81 af be f8 02 a4 3e
       0.016913982 -0.16242093 -0.3427814 0.32033515
000330 13 54 4b 3e b8 d5 a3 be d5 fa b2 be b2 80 19 3e
       0.1985629 -0.31998992 -0.34956995 0.149905
000340 9b 11 e8 be af 13 ec 3d ec 39 ca 3d c0 1b 19 3e
       -0.45325932 0.11527192 0.09874329 0.14951992
000350 e7 d7 8c be 40 0c 1e 3f 97 0d 46 3a 13 f8 7d 3e
       -0.2750847 0.6173744 0.00075551256 0.24801664
000360 8e be 21 3e 42 ae a8 3d ee 1a 8e 3e 36 2c 5d 3e
       0.15795347 0.08236362 0.2775492 0.21598896
000370 da 93 0e be 74 2a 40 3e bd 09 3c 3f 41 fa 90 3e
       -0.13923588 0.18766195 0.7345236 0.2831593
000380 b2 05 1f 3e 74 69 a3 3e 8e a1 83 3e f8 63 b4 bc
       0.15529516 0.31916392 0.25709194 -0.022020325
000390 99 ed bc 3e 0d 38 2b 3e 3c 35 b6 3e c4 6a 87 3e
       0.36900023 0.167206 0.3558749 0.26448643
0003a0 7c 13 af 3e 2d 77 c1 3e c5 b8 05 bd 4d 3f d3 3d
       0.34194553 0.37786236 -0.032646913 0.10314808
0003b0 f6 ca d6 3e 76 cb 7a 3d 6c 90 e5 3c 39 87 3d 3d
       0.41951722 0.06122919 0.028022967 0.046271536
0003c0 08 7a d6 bb 63 5b 00 3c ca a3 1d 3d 3f 57 f2 3d
       -0.006545309 0.007834288 0.03848628 0.11833047
0003d0 65 58 10 3e e7 2b 10 3e 35 eb 62 3e 70 de da be
       0.1409622 0.14079247 0.22160037 -0.4274783
0003e0 53 52 55 3f c3 4e 71 3e ca 77 95 3c b1 3e 3d 3d
       0.8332874 0.23565201 0.018245596 0.046202365
0003f0 e1 4d c1 3d e5 a5 49 bf 84 bd 10 bf 0d 16 7b 3f
       0.09438682 -0.7876876 -0.5653918 0.9808052

net.0.bias f4 [64]
000000 df ea 14 bf 58 e7 6c c0 5e 11 71 3f 96 1e 23 c0
       -0.58170885 -3.70162 0.94167125 -2.5487418
000010 b5 69 82 c0 f1 28 4b c0 b2 68 8b c0 dc 5d 4d bd
       -4.0754037 -3.1743739 -4.35653 -0.05013834
000020 69 e3 33 c0 27 3b b4 c0 80 97 24 bd d1 dd 4e c0
       -2.810755 -5.6322207 -0.040183544 -3.2322886
000030 e1 c5 a1 bf 53 78 c4 bf 24 81 83 3d bd 59 4f c0
       -1.2638513 -1.534922 0.06421116 -3.2398522
000040 09 94 a1 c0 e5 12 4b c0 94 a0 39 3e 9b b5 64 bf
       -5.0493207 -3.1730282 0.18127662 -0.8933961
000050 df 15 15 bd 08 d7 27 c0 73 6c 75 c0 bd c0 14 c0
       -0.03639781 -2.6224995 -3.8347442 -2.3242638
000060 a3 7f 8f c0 a1 fa 31 c0 db c9 a6 c0 89 a4 37 c0
       -4.4843307 -2.7809222 -5.2121406 -2.8694174
000070 68 f4 82 c0 05 c1 00 c0 7e e0 6b 3f 52 22 96 bf
       -4.0923347 -2.011781 0.9213942 -1.1729224
000080 22 bd 3a c0 39 35 71 bf f2 72 05 c0 a0 85 6b c0
       -2.9177938 -0.94221836 -2.0851407 -3.6800308
000090 d7 7e 9f 3f 15 39 08 be 92 12 86 3e 77 c8 45 c0
       1.2460583 -0.13303025 0.26186043 -3.0903604
0000a0 41 ec 1a 3f 12 37 6d c0 47 8a 03 c0 5b 6f 2e c0
       0.60516745 -3.7064862 -2.0553148 -2.7255466
0000b0 30 7a 0e c0 eb 28 24 c0 49 ae bd bf 7e 5b d3 bf
       -2.2262077 -2.5649974 -1.4818813 -1.6512296
0000c0 8a 37 a9 3f 86 d0 26 bf 7b 7d 3c be ff 6c 20 c0
       1.3220074 -0.6516193 -0.18407242 -2.5066526
0000d0 d0 b4 df bf ee de 6f c0 ff 62 1b bf 14 99 3b c0
       -1.7477055 -3.7479815 -0.6069793 -2.9312181
0000e0 1c 9a 32 c0 db 51 fb 3f f7 f4 e7 3e 96 4d 88 c0
       -2.790656 1.9634355 0.4530408 -4.259471
0000f0 6f 96 66 c0 ed c8 83 bf b0 82 ca 3e 81 c7 89 bf
       -3.6029317 -1.0295693 0.39552832 -1.0764009

net.2.weight f4 [8, 64]
000000 5a 93 25 3b 8e ce 9f bd 8e f5 8b be b5 53 da 3d
       0.002526483 -0.07803069 -0.2733578 0.10660497
000010 71 de 07 3e 8e f8 3e be 46 bc 75 be 7a da a5 bd
       0.13268448 -0.18649504 -0.23997602 -0.08098312
000020 04 1d 0f 3e 63 92 4f 3f 24 3e d4 3d 59 21 ad bd
       0.13975912 0.81082743 0.10363415 -0.08453626
000030 06 c4 3a 3e b1 83 cc be ed 22 ec bd 85 3b c1 3d
       0.1823884 -0.39944223 -0.11530099 0.094351806
000040 6f 75 ef bd a4 8a 7f be 90 9b 01 be 79 83 90 3d
       -0.116923206 -0.24955231 -0.12656999 0.070563264
000050 f4 de 5d 3e 1d 0b f6 3d a6 cc c7 be 60 5a c2 bd
       0.21667081 0.120138384 -0.39023322 -0.09489894
000060 94 86 01 3d a1 56 ec 3d 8f bc be bd b2 d3 0e be
       0.031622484 0.11539961 -0.093133084 -0.13947943
000070 94 3e 38 be ec 0d 45 be e7 60 68 bd a9 f1 90 bd
       -0.17992622 -0.19243592 -0.05673304 -0.07077343
000080 10 62 b4 bd 2e 2d 0a 3e ea c2 cc bd aa 80 6a be
       -0.088077664 0.13493797 -0.099981144 -0.22900644
000090 da 26 cb 3d d0 f1 92 bd ba 18 91 3e 7c df cd 3d
       0.0991952 -0.07175028 0.28339177 0.10052392
0000a0 ca b8 83 bd e3 ff 9c 3d 3c 35 98 3d 19 64 c4 3d
       -0.0643173 0.07665994 0.07432029 0.095894046
0000b0 5f ef 89 bd 87 37 f3 3d 09 dd 08 be 0d 13 0e 3d
       -0.067351095 0.118758254 -0.13365568 0.034686137
0000c0 bb 00 2d bf 15 76 87 3d d6 1a 20 bd a6 53 cd bd
       -0.6757924 0.06614319 -0.039088093 -0.1002572
0000d0 2f 3f bc be b8 cc 86 3d 4d cb 62 bd 61 85 39 3e
       -0.36766955 0.06582016 -0.055369664 0.18117286
0000e0 3b fc 4d bd 3e ec d6 bd b0 db 84 bd a1 59 65 3d
       -0.050289374 -0.10494278 -0.064872146 0.05599368
0000f0 c7 95 2e 3e ad b5 50 be a6 80 64 3d 91 4b 07 3d
       0.17049323 -0.20381804 0.05578675 0.03303105
000100 3d 5a 4d bd e9 80 a7 3d 59 27 8b 3e 59 00 79 bd
       -0.050134886 0.081788845 0.27178457 -0.060791347
000110 8d b5 0f be 42 ea 31 3e 82 52 fa 3d 90 bc 20 3d
       -0.140341 0.17374519 0.12222768 0.039242327
000120 47 ce 76 bd 7e 0d 9a be b0 cf c6 bd 0d 8b c0 3d
       -0.060255315 -0.3008842 -0.09707582 0.09401522
000130 6b 20 4c bd 44 90 19 3e 48 01 a2 3d a4 f7 85 bd
       -0.049835604 0.14996439 0.07910401 -0.06541374
000140 9c e3 c9 3d 29 01 46 3e 5f d8 54 be cb 8c a8 bd
       0.09857866 0.1933638 -0.20785664 -0.08229979
000150 f5 e3 a0 bd c7 df 93 3c 88 6b 8a 3e e0 0a e0 3d
       -0.07855979 0.018051041 0.27035165 0.10939574
000160 9e 72 b6 bd 9e aa a9 bd 06 a8 ba 3d ca 83 fc 3d
       -0.0890858 -0.08284496 0.09114079 0.12329824
000170 64 1b 8f 3e 89 23 d2 3d 88 9f ac 3d 8f 10 a8 3d
       0.27950585 0.10260684 0.08428866 0.08206283
000180 15 12 c9 3d 9e 35 e5 bd 31 71 29 3c 75 b2 e7 3c
       0.09817902 -0.11191867 0.010341928 0.028283337
000190 96 75 eb bd 61 ef c4 3d 99 9f 31 3e 78 d7 7d bd
       -0.11497037 0.096159704 0.17346038 -0.061973065
0001a0 85 db 26 3d 8e 13 88 bd 9d f0 12 be 1a 99 ca bd
       0.040736694 -0.06644355 -0.14349599 -0.09892483
0001b0 72 67 1c 3e 44 02 01 3d aa 7a b5 3d 83 68 36 bd
       0.15273836 0.0314963 0.08861287 -0.044533264
0001c0 5c 13 5e 3e 15 0d 31 bd 66 d8 bf 3d cb a7 fc 3d
       0.21687073 -0.043225367 0.093674466 0.123366915
0001d0 34 a1 34 3e 3d 7b ad bd c5 a7 ac 3d cf 61 cc bd
       0.17639619 -0.084707715 0.08430437 -0.09979593
0001e0 0e 9b 7d 3d 66 44 9a 3d e0 4f 72 3d 6f dd b9 bd
       0.06191545 0.07532577 0.059158206 -0.09075438
0001f0 d0 9b e1 bd c9 c0 c6 3c db 6c dd bd 0f 07 43 bc
       -0.11016047 0.024261849 -0.10811778 -0.011903538
000200 9a e9 93 bd 9c 3f 81 bd fb 0a 08 bd d4 b7 9a 3c
       -0.0722229 -0.06310961 -0.033213597 0.018886484
000210 9a ec 81 3e 0f d2 ee bd 9b ea 78 bd 6f d8 f4 bc
       0.25375825 -0.11661159 -0.060770612 -0.02988836
000220 a1 d0 35 3e 19 bd 06 bf 60 e3 96 bb d1 94 08 be
       0.17755367 -0.5263229 -0.004604742 -0.13338019
000230 a8 c4 d2 3d 56 01 dd be 48 24 2c bd 03 3d 9e bd
       0.102914155 -0.43165082 -0.042026788 -0.07726481
000240 67 bc 50 bd 47 7e b5 be dc 82 4a bd 1b 84 d0 bc
       -0.050960924 -0.35447904 -0.049441203 -0.025453618
000250 69 1d d7 be be 0a 1b 3e 2d 4f df bd 4e 34 80 ba
       -0.42014626 0.15140817 -0.109037735 -0.0009781213
000260 4f 36 97 3d d6 ad 2d be 17 2d b1 bd 91 76 59 3c
       0.073834054 -0.16960844 -0.08651178 0.013272897
000270 bf 8c d1 be 2f 96 a7 3c 41 7d 4a 3e 10 68 f1 3d
       -0.40927693 0.020457355 0.19774343 0.117874265
000280 cf cb b0 bd 68 f3 89 be fb 98 da bc 09 9e 2b be
       -0.086326234 -0.26943517 -0.026684275 -0.16759504
000290 36 08 ec bd 10 7f f6 bb ac a9 04 3f ed 3b ab bd
       -0.115250036 -0.0075224712 0.518214 -0.08361039
0002a0 78 7a 23 bd b7 90 5e bc 9b 01 41 3e ec 8f d3 bd
       -0.039911717 -0.013584307 0.18848269 -0.10330185
0002b0 3d e4 20 bd 8a 80 13 3e ef 46 96 bd 18 4e 82 bd
       -0.039280165 0.14404503 -0.07337748 -0.063625515
0002c0 9d 08 83 bd 33 b6 c6 3c 6b 02 c2 bc d8 c4 6b bc
       -0.06398127 0.024256801 -0.023682794 -0.014390193
0002d0 09 9c c3 be 3f fd 0f bd 76 8c 6a 3d 69 e5 dc be
       -0.38204983 -0.035153624 0.05726286 -0.43143776
0002e0 f9 a2 bf bc 8b 04 90 bc a8 72 84 bd be 40 8e 3e
       -0.023393141 -0.017580291 -0.064671814 0.2778377
0002f0 5e 26 d4 be d3 ba 0a bf 87 fd eb bd 15 bf 57 3d
       -0.41435522 -0.5419132 -0.11522966 0.052672464
000300 ac 24 83 3e a6 9b 0e be 0d c0 c0 bd fd ab 33 3e
       0.25613916 -0.13926563 -0.09411631 0.17546077
000310 cb b6 d3 3e 86 eb ee bc f8 eb 0c be 9a 82 f2 bd
       0.41350397 -0.02916504 -0.1376189 -0.118413165
000320 fa 66 06 3e b9 4f 20 3e 1d b0 10 3d 31 b3 05 be
       0.1312522 0.15655412 0.035324205 -0.13056637
000330 6d ad 82 3e 46 21 b9 be 95 71 33 be cc ba ce 3d
       0.25522938 -0.36158198 -0.17523797 0.100942224
000340 02 b8 5f bd a9 4a 16 be 4e 31 43 3e c1 c8 43 3d
       -0.054618843 -0.14676918 0.19061777 0.047798876
000350 f2 66 39 3e bc 56 bf 3d 90 6e 6e be 24 f5 d5 3c
       0.18105677 0.09342715 -0.23284364 0.026117869
000360 f2 ab 5f 3e d3 bb 50 3d 71 db 34 bd a7 b4 0b be
       0.21842936 0.050960373 -0.044154588 -0.13643132
000370 13 23 cb 3d de 68 34 be 56 b6 3a 3d ee 0c 8a bd
       0.09918799 -0.17618129 0.045584045 -0.067407474
000380 ae d6 95 bd da 38 7b bc fc d6 26 be 65 16 65 be
       -0.073163375 -0.015333379 -0.16292948 -0.22371824
000390 cc df 9a bc 2c 39 4a be 2f ab 2d 3d 29 5e 94 3d
       -0.018905543 -0.19748372 0.04239958 0.07244522
0003a0 b2 37 01 be 43 0c a2 3d 83 a7 9e 3e d4 ac d6 3d
       -0.12618902 0.07912495 0.30987176 0.10482183
0003b0 bc 68 08 be 70 c7 cf 3d 86 71 fc bd 21 4e ff 3d
       -0.13321203 0.101454616 -0.123263404 0.12466074
0003c0 6a f2 53 be 5a ee 30 3d f1 29 51 be 13 8c 0c be
       -0.20697942 0.04319606 -0.20426156 -0.13725309
0003d0 4d 23 c5 be 69 61 c4 3d 51 27 91 bd 0e f0 5a 3e
       -0.38503495 0.09588892 -0.07087577 0.21380636
0003e0 26 d8 55 bd 58 e3 d6 bd 2b b0 de bd 2a c1 9e 3e
       -0.05220809 -0.10492581 -0.10873445 0.31006747
0003f0 38 8e b5 3e 44 ac 3e be 6a 7e 63 bd 40 88 30 bd
       0.35460067 -0.18620402 -0.05554048 -0.043098688

net.2.bias f4 [8]
000000 52 a1 e1 bd 68 f8 a3 3e c2 c3 bc 3e 1f e6 1b 3f
       -0.110170975 0.32025456 0.368681 0.6089801
000010 a0 54 bc be 2e 18 33 bf e7 42 06 bf 64 69 4f 3f
       -0.36783314 -0.6995877 -0.52445835 0.8102019

net.4.weight f4 [1, 8]
000000 63 87 33 3f d2 44 d8 be b6 3c 39 3e 33 22 81 3e
       0.7012846 -0.42240006 0.18089566 0.25221404
000010 ae e1 a4 bf e6 eb 27 3f 58 c9 4a 3e 50 d5 c8 3e
       -1.2881372 0.6559433 0.19803369 0.39225245
