tuning/saved_model.pth (torch, 822423 bytes, 5 tensors)

net.0.weight f4 [256, 768]
1.0033623 0.20638947 0.88377506 1.0977793 -0.32619277 -1.5683436 -1.4011533 -1.2757778
0.22842582 0.2577244 1.0174184 0.45868722 -0.057975102 -0.93075556 -2.2497342 -1.3847142
0.6362958 2.669208 2.4426372 -0.07605321 -0.4613684 -0.5904179 -0.6873389 -1.1707964
1.5837651 1.4788197 0.27773497 1.9383976 0.60535264 -1.4002805 -2.826811 -1.0587522
1.6808811 0.32746166 0.6956723 1.100993 -1.8333571 -1.7652646 -2.3666704 0.2777955
-3.1014779 0.745553 -0.3662381 -1.5447776 -2.582537 0.19985776 2.942416 -0.49684817
-0.08870371 -0.17077403 -0.08888537 0.8098026 -3.301248 -0.24755274 0.04657158 3.040349
2.0745344 3.1552868 4.5983577 -0.31384984 2.2874336 -3.1183987 -0.31692484 2.0110767
-3.0910096 2.8868542 -4.32258 3.6486595 -3.912808 3.0564713 -4.7392826 -1.6769341
-10.121337 -1.3973135 -7.131212 0.4335072 0.007883287 -1.4027414 -1.063089 -4.5497804
-4.199882 -1.850506 -0.7086773 -2.6607623 -0.9636464 -0.60204744 -0.47000754 -5.8203554
-5.8890653 -3.9163945 1.0231 -1.6232245 -0.5141458 1.290147 0.9536895 -0.6528017
1.3995178 0.30646226 -0.7332934 0.03619449 -0.55887175 0.5882589 1.6977066 0.19464348
0.9892175 0.20151362 0.18370008 -0.11310964 -0.7304959 -0.09480744 -0.053400856 0.6033813
1.2717005 1.2900879 1.0748997 -0.3305616 -0.60859424 0.52625704 0.37431794 0.9509315
1.2847784 2.005155 0.6509113 -0.5411822 -0.53197813 -1.6018051 0.28208897 0.20946571
-0.4487871 0.052311733 1.1428952 1.3639344 1.5453895 -0.9200698 -5.421413 0.8002401
1.5263435 -1.042552 1.1811972 0.98617554 0.93759906 -0.49680692 1.799127 -6.907255
-0.13228938 0.6477717 1.5824264 1.4860141 0.5176158 -0.22443299 1.2134644 0.28794384
0.905745 3.5092583 1.4339904 1.1098204 0.39259678 -0.5544199 -1.8501009 -1.8077863
1.4652199 -0.5522824 -0.31870207 0.30620736 -0.22405364 -0.53307927 -1.3054601 -1.2779734
-1.4057889 0.7987733 -0.5786658 -2.0753078 -0.24708167 0.42800274 -1.653093 -1.948496
1.4808314 -2.1926923 -2.086545 -0.31888238 -1.3871394 -0.14869235 -0.092934445 -4.4103274
-0.09366683 0.8892972 0.55591255 -1.5299267 1.0822947 -4.0544596 -1.3798484 -2.2507787
0.71162003 -0.92413545 1.2399124 -1.071768 -0.13395323 -1.4414345 1.8090633 1.828763
1.5897379 1.4496104 2.0399656 1.0612497 2.8431213 -0.69752586 -0.9715987 0.6177767
1.2293338 -1.9465194 0.98089904 0.5104386 1.3727236 -0.7644428 -0.5894945 -0.107215546
-1.0622592 2.3339632 0.76630574 -1.475526 -1.2722496 -0.4211441 -0.07746988 1.7808162
-3.2342508 2.2863011 0.28568444 0.09769557 0.13127606 -0.09328419 1.9325976 0.5240098
-0.6797518 -0.9184405 0.28515592 1.02778 -1.1728652 1.6573454 0.037580617 1.0912955
-0.36278546 -1.1902415 0.23373753 0.3566221 0.46463996 -0.31708863 -0.52683693 -1.441652
-0.54660416 1.3497487 1.5229827 -0.5370158 0.24309629 -0.11742629 4.2272234 2.5134585
00000000: 2d6e 803f c357 533e 153f 623f 0884 8c3f
00000010: bd02 a7be 7cbf c8bf fe58 b3bf b04c a3bf
00000020: 75e8 693e 74f4 833e c43a 823f 0dd9 ea3e
00000030: 4d77 6dbd ff45 6ebf a5fb 0fc0 513e b1bf
00000040: 48e4 223f 4ed4 2a40 2b54 1c40 c9c1 9bbd
00000050: 7b38 ecbe a125 17bf 71f5 2fbf a8dc 95bf
00000060: d1b8 ca3f f749 bd3f 4733 8e3e 6a1d f83f
00000070: 64f8 1a3f 643c b3bf 79ea 34c0 3185 87bf
00000080: 1d27 d73f 0ea9 a73e 9417 323f 57ed 8c3f
00000090: 72ab eabf 31f4 e1bf 8777 17c0 363b 8e3e
000000a0: 9d7e 46c0 90dc 3e3f 8f83 bbbe 46bb c5bf
000000b0: 4948 25c0 83a7 4c3e 8b50 3c40 e262 febe
000000c0: 4aaa b5bd 63df 2ebe 8809 b6bd 394f 4f3f
000000d0: a647 53c0 777e 7dbe d7c1 3e3d 1495 4240
000000e0: 2cc5 0440 38f0 4940 bf25 9340 edb0 a0be
000000f0: 5065 1240 d893 47c0 f943 a2be 7bb5 0040
00000100: 1ad3 45c0 38c2 3840 9352 8ac0 a383 6940
00000110: 726b 7ac0 3a9d 4340 34a8 97c0 c7a5 d6bf
00000120: fff0 21c1 2bdb b2bf e432 e4c0 a8f4 dd3e
00000130: e728 013c 088d b3bf 4d13 88bf cd97 91c0
00000140: 6f65 86c0 61dd ecbf e06b 35bf ee49 2ac0
00000150: 88b1 76bf c81f 1abf d4a4 f0be 5a40 bac0
00000160: 3973 bcc0 35a6 7ac0 f1f4 823f d2c5 cfbf
00000170: 0f9f 03bf 8923 a53f ff24 743f 031e 27bf
00000180: 6623 b33f 9fe8 9c3e 1eb9 3bbf ac40 143d
00000190: 3812 0fbf 2398 163f 734e d93f 9f50 473e
000001a0: 5c3d 7d3f 9659 4e3e e01b 3c3e 07a6 e7bd
000001b0: c801 3bbf 672a c2bd dbba 5abd 3277 1a3f
000001c0: 15c7 a23f 9a21 a53f 5096 893f 5f3f a9be
000001d0: d5cc 1bbf c8b8 063f 9aa6 bf3e 3f70 733f
000001e0: 9e73 a43f 7654 0040 1fa2 263f eb8a 0abf
000001f0: b82f 08bf f307 cdbf f76d 903e 2e7e 563e
00000200: 6cc7 e5be d444 563d 644a 923f 6795 ae3f
00000210: 53cf c53f b289 6bbf 377c adc0 89dc 4c3f
00000220: 395f c33f 5872 85bf 7831 973f 0076 7c3f
00000230: 7e06 703f 7a5d febe cb49 e63f 3c08 ddc0
00000240: de76 07be 5ed4 253f f38c ca3f b635 be3f
00000250: 7882 043f c3d1 65be cd52 9b3f 606d 933e
00000260: e8de 673f b097 6040 ff8c b73f 980e 8e3f
00000270: 7202 c93e 76ee 0dbf 1bd0 ecbf 8b65 e7bf
00000280: 538c bb3f 6162 0dbf eb2c a3be 36c7 9c3e
00000290: 516e 65be e277 08bf 5119 a7bf a294 a3bf
000002a0: e4f0 b3bf 687c 4c3f 7123 14bf d8d1 04c0
000002b0: fa02 7dbe 2d23 db3e 8d98 d3bf 5168 f9bf
000002c0: e28b bd3f 1255 0cc0 f489 05c0 8d44 a3be
000002d0: c98d b1bf cf42 18be 6a54 bebd 6721 8dc0
000002e0: 65d4 bfbd fba8 633f 4950 0e3f a3d4 c3bf
000002f0: a288 8a3f 22be 81c0 df9e b0bf c20c 10c0
00000300: bb2c 363f 2494 6cbf 73b5 9e3f b22f 89bf
00000310: 092b 09be ed80 b8bf 638f e73f e814 ea3f
00000320: 887c cb3f d58c b93f cc8e 0240 08d7 873f
00000330: b3f5 3540 0e91 32bf b1ba 78bf 9d26 1e3f
00000340: cf5a 9d3f 8c27 f9bf 331c 7b3f 1bac 023f
00000350: 68b5 af3f 86b2 43bf 1de9 16bf d393 dbbd
00000360: 1cf8 87bf a75f 1540 9d2c 443f 09de bcbf
00000370: 13d9 a2bf 33a0 d7be 87a8 9ebd c9f1 e33f
00000380: f7fd 4ec0 c252 1240 3b45 923e 9d14 c83d
00000390: 3b6d 063e c80b bfbd 5c5f f73f 8225 063f
000003a0: 3704 2ebf eb1e 6bbf f5ff 913e 4c8e 833f
000003b0: 7220 96bf e523 d43f 22ee 193d 92af 8b3f
000003c0: 04bf b9be d559 98bf e458 6f3e 2c97 b63e
000003d0: 4ae5 ed3e 7159 a2be c9de 06bf 0e88 b8bf
000003e0: 40ee 0bbf 91c4 ac3f 19f1 c23f de79 09bf
000003f0: 3cee 783e 327d f0bd 6a45 8740 81dc 2040

net.0.bias f4 [256]
-0.21553028 -0.9260261 1.886628 0.35678357 -0.5735942 2.7509494 1.0193348 -0.18957143
2.3382368 0.7564804 -0.5537486 1.0092382 2.9341986 1.6899245 -0.7495915 1.0398637
1.8235261 3.5619187 1.3414795 0.76191616 3.8398194 2.1905274 0.5894931 0.94497913
0.13692023 0.10044182 3.0929983 -0.8456175 -0.1281609 0.63226354 0.2069826 1.3066025
-0.27500862 1.6016905 2.7794144 -0.36895052 1.7661493 1.2252555 0.79216325 3.5080268
-0.35387757 6.046583 0.8674335 2.7493715 -0.13907424 3.7973826 -1.1006379 2.1062129
1.5143692 2.2783508 3.4575896 1.3156314 1.1870655 2.3534691 0.48741707 0.8081648
2.6433928 -0.2544013 -0.09834464 1.5506723 2.4380407 3.4327013 1.4933584 1.751979
-0.060312938 0.87433773 1.1714286 -0.36055496 0.80281764 1.2540661 -1.1473857 2.07577
0.78000116 0.6500475 0.2740959 2.1469185 2.7420874 0.78244066 -0.09775558 1.7073808
0.7035103 1.463454 -0.42821446 1.4864973 0.7902507 3.0526454 -2.0859883 1.8951685
0.1848076 -2.127943 -0.26116958 1.2208637 -0.29470643 -0.0069624023 -0.37552917 0.13084312
0.05162986 -0.0027404602 0.13404806 0.053301092 -0.63937944 0.41422185 2.9619324 1.595733
0.9919602 2.3140934 0.103039235 1.1840534 -0.44355962 -1.093699 0.23180825 0.09796545
-1.8712802 0.24909723 1.7443496 4.00333 0.8487183 1.5556468 1.2703264 -0.3470171
0.49216178 -0.75749725 1.4868509 -0.43038112 4.271242 2.605713 3.1786914 -0.5258645
2.3380504 2.126236 2.1002345 3.1207592 -1.2411041 2.6768513 3.2055783 2.2613583
-0.30168906 2.7116728 0.22487019 0.6880106 2.8769553 2.3675382 2.7034101 -0.123024575
0.14338832 2.1025782 -0.44008243 3.329018 2.780878 1.9343883 5.8305283 1.2816863
-0.74639505 2.0508032 -1.307611 3.014233 2.9478593 3.3381565 -0.5429571 2.0606184
0.6420858 3.3616652 -1.090706 -0.79588497 0.26716536 -0.3724076 3.0469706 1.6065397
1.4554164 -0.7594194 0.36328062 1.1511861 0.5921714 -0.94159395 1.0136561 2.2141092
-0.01986171 0.3117808 3.5077178 2.3992712 -0.34189174 2.7000353 4.072225 1.6867151
-1.0041099 0.011066376 0.35360357 1.3409272 1.6800375 2.1845477 2.7386875 -1.1779686
-0.38960487 1.1111468 0.665585 1.8226006 -0.5140102 0.15225987 2.2943096 1.8158582
4.6461425 1.8461763 1.5649737 0.88559884 1.5491369 2.4989924 0.887772 0.025421685
1.8858016 -0.39213228 0.08708427 -0.1198086 -0.22835585 5.8813324 -0.7153769 0.4710977
3.433576 1.1665214 -0.18533699 0.27950576 3.268305 1.1106621 0.5656069 2.8300421
2.3337996 0.47438663 -0.5704087 0.67229265 2.407869 -0.46449742 1.4157169 2.6040006
0.9651069 -0.6716308 0.43695435 -0.7820887 0.50827575 0.42856815 1.0365088 1.017605
-0.94048625 0.737872 2.2974412 0.69743705 -0.68297243 -0.7854913 -0.45730984 2.4734342
2.4880733 2.1557267 -0.7588496 3.4232514 2.6833687 1.263786 -0.30985126 1.3979394
00000000: f8b3 5cbe 0c10 6dbf 077d f13f 56ac b63e
00000010: 12d7 12bf 8e0f 3040 9079 823f 031f 42be
00000020: aca5 1540 b3a8 413f 78c2 0dbf b82e 813f
00000030: e9c9 3b40 724f d83f 3be5 3fbf 411a 853f
00000040: 4e69 e93f 7af6 6340 9ab5 ab3f f00c 433f
00000050: 9abf 7540 9a31 0c40 05e9 163f 27ea 713f
00000060: d134 0c3e 71b4 cd3d aff3 4540 637a 58bf
00000070: 9c3c 03be 06dc 213f 3ff3 533e c03e a73f
00000080: eecd 8cbe 3204 cd3f ede1 3140 15e7 bcbe
00000090: 2e11 e23f 2cd5 9c3f 36cb 4a3f 8383 6040
000000a0: 712f b5be 9c7d c140 1f10 5e3f b4f5 2f40
000000b0: 7a69 0ebe 5108 7340 b4e1 8cbf 31cc 0640
000000c0: dad6 c13f 80d0 1140 2649 5d40 9c66 a83f
000000d0: c3f1 973f 3d9f 1640 bb8e f93e e3e3 4e3f
000000e0: 592d 2940 e340 82be ea68 c9bd 6e7c c63f
000000f0: dc08 1c40 61b1 5b40 5e26 bf3f d940 e03f
00000100: b30a 77bd 99d4 5f3f 5ff1 953f a99a b8be
00000110: 7585 4d3f 3d85 a03f 89dd 92bf 6ad9 0440
00000120: 28ae 473f 8369 263f 4c56 8c3e 1d67 0940
00000130: 5c7e 2f40 084e 483f 1434 c8bd 748b da3f
00000140: 4019 343f 7652 bb3f ed3e dbbe 8b45 be3f
00000150: df4d 4a3f 8b5e 4340 d580 05c0 e294 f23f
00000160: 343e 3d3e 3830 08c0 05b8 85be 4345 9c3f
00000170: c3e3 96be dd24 e4bb 5c45 c0be bdfb 053e
00000180: d579 533d 4b99 33bb e543 093e 3f52 5a3d
00000190: 5fae 23bf e314 d43e 4d90 3d40 fb40 cc3f
000001a0: 1bf1 7d3f 1b1a 1440 3c06 d33d 108f 973f
000001b0: 3f1a e3be 54fe 8bbf 245f 6d3e 1ca2 c83d
000001c0: 1c86 efbf 5813 7f3e d946 df3f 481b 8040
000001d0: 9a45 593f 6f1f c73f 0e9a a23f 3aac b1be
000001e0: a1fc fb3e 57eb 41bf 2151 be3f ea5a dcbe
000001f0: 04ae 8840 00c4 2640 ae6f 4b40 0e9f 06bf
00000200: 9ea2 1540 4014 0840 3e6a 0640 85ba 4740
00000210: 80dc 9ebf 8851 2b40 3228 4d40 18ba 1040
00000220: fd76 9abe 0c8c 2d40 5f44 663e 7621 303f
00000230: 0920 3840 bf85 1740 ac04 2d40 4ff4 fbbd
00000240: 63d4 123e a490 0640 7c52 e1be a20e 5540
00000250: e8f9 3140 099a f73f b093 ba40 4c0e a43f
00000260: bf13 3fbf 5c40 0340 cc5f a7bf 32e9 4040
00000270: baa9 3c40 5ba4 5540 3dff 0abf 2ce1 0340
00000280: bc5f 243f 8625 5740 419c 8bbf 1ebf 4bbf
00000290: e6c9 883e 35ac bebe 9101 4340 18a3 cd3f
000002a0: 164b ba3f 4f69 42bf ebff b93e 115a 933f
000002b0: 8b98 173f 4d0c 71bf 7cbf 813f f7b3 0d40
000002c0: 06b5 a2bc bca1 9f3e 737e 6040 a98d 1940
000002d0: 6f0c afbe 61cd 2c40 ab4f 8240 48e6 d73f
000002e0: ac86 80bf bf4f 353c 870b b53e 81a3 ab3f
000002f0: 780b d73f a1cf 0b40 a846 2f40 adc7 96bf
00000300: 4a7a c7be 0f3a 8e3f c763 2a3f fa4a e93f
00000310: 2c96 03bf 03ea 1b3e f8d5 1240 0b6e e83f
00000320: 33ad 9440 814f ec3f 0f51 c83f 9bb6 623f
00000330: 1e4a c63f 7eef 1f40 0745 633f 2341 d03c
00000340: f261 f13f 90c5 c8be 3d59 b23d 365e f5bd
00000350: 1ed6 69be e033 bc40 f122 37bf b833 f13e
00000360: b6bf 5b40 9350 953f fbc8 3dbe 611b 8f3e
00000370: e92b 5140 2d2a 8e3f 9dcb 103f 691f 3540
00000380: f95c 1540 cee2 f23e 4e06 12bf 5f1b 2c3f
00000390: 871a 1a40 9bd2 edbe 3636 b53f f2a7 2640
000003a0: 3f11 773f ffef 2bbf 7bb8 df3e f736 48bf
000003b0: 5c1e 023f 496d db3e 52ac 843f e140 823f
000003c0: b5c3 70bf 2ee5 3c3f 4709 1340 3c8b 323f
000003d0: 48d7 2ebf f515 49bf 8424 eabe bf4c 1e40
000003e0: 983c 1f40 6df7 0940 f843 42bf 8d16 5b40
000003f0: 50bc 2b40 bdc3 a13f d3a4 9ebe aeef b23f

net.2.weight f4 [32, 256]
1.6375405 -0.6154137 -0.19869119 -0.8315236 -0.9847343 -2.0586917 2.0615585 3.3363557
0.9767469 -0.6947848 -1.4912372 -0.1526869 1.0539471 1.4276841 -0.6464 0.6835392
-0.058815073 0.4492691 -0.8291683 1.4966879 1.1529522 0.40528846 -0.45022446 -1.4590355
-0.8509251 -0.3387262 -1.32296 -0.2550359 -0.37738097 -1.0376177 -0.73744494 -0.4953434
-0.4480556 -0.26640895 0.94380826 -0.95618623 -0.32785347 0.99604595 -1.1736704 0.7641927
-0.890092 1.7390083 0.029475173 0.791046 -0.18352304 1.8041444 2.2167351 -1.2387007
0.6008122 -0.96632797 -1.105484 -1.043969 -0.87919056 -0.99247944 -0.97644866 1.3181561
0.3645493 -0.87293047 -0.379963 -2.676939 0.029967243 0.8938816 1.6462842 1.4458464
2.2231376 0.9685453 -0.40728408 -1.4038075 0.37426296 -0.7208629 -0.70615697 -0.44388345
-0.40694988 -1.2629899 -0.71900433 -1.8012123 -0.66098183 -0.5028409 -1.1412301 -0.086601704
-0.5105398 -0.8830435 1.4181095 -1.0003262 -0.7452106 0.2521808 -0.6835626 -0.2616294
-0.63488126 -0.61821425 -1.1577986 -9.432631 -0.48144144 -0.639941 -0.9135308 -1.0771576
-0.5613896 -0.79975396 -1.2227403 -0.67741364 3.0713754 1.6048024 0.5833267 -0.5869046
1.0000714 2.013095 0.66473603 -1.7910885 -0.7532693 -0.8875735 -0.53773373 -0.49998504
-1.4395237 -0.88797224 0.076482676 -0.6240426 -0.9181762 0.3243776 0.68861765 0.06587433
-1.3347106 -0.6459914 0.00999702 -0.93194455 0.49040815 0.90210706 -0.04441989 2.6395597
0.3795165 1.1482081 0.53617203 -0.5978868 -0.44304582 0.7708652 -0.9014741 0.2568321
2.734544 0.9310859 -0.92966306 -1.1289971 -0.77885735 1.1954125 -1.1730331 0.85760987
-1.2778275 0.5041156 2.0755675 0.5583981 -0.92688245 -0.7002788 2.011022 -0.1160917
-0.9138785 -0.5390571 -0.4297496 -0.35427317 0.9327984 0.35759807 -4.3120737 1.2475729
0.25901815 -0.5830879 -6.090812 -0.73214495 -0.730581 2.6580584 1.8352548 -2.4561083
1.7519295 -0.91134316 2.2162628 2.2848716 -0.83094317 -1.2516409 -0.6451358 -0.54869837
-1.3805623 -0.5593671 1.409827 1.147094 -1.2632253 -0.57273227 1.8909836 0.6336225
-0.75510275 -0.96281505 -1.1891663 2.6450956 0.73445547 -0.5731624 -0.98159164 -0.39142403
-1.3135283 -1.1125128 -11.690742 0.2967189 2.797066 -0.57600766 0.34795338 -1.0554056
0.81293815 1.3988651 -0.42328307 -0.61074 0.26185685 -0.85484785 -6.986517 2.2028303
0.7865582 -0.78065264 -1.3077832 -0.92858106 -0.90154964 1.7999287 -2.0371995 1.4430752
0.9664686 -0.13513236 -0.8707435 -1.1265876 0.525598 0.65204006 -0.92607254 0.87195855
1.220995 -0.5124011 -0.6160892 0.5037477 -0.45490322 -0.43177736 -0.5706262 -0.385671
-0.35915744 2.614493 -1.2328094 0.2752354 -0.42537567 -0.6129544 -9.788116 1.4888604
-1.087635 -1.1153096 -0.6751494 5.2226768 -0.006460438 -0.838499 -0.6981342 0.049393617
0.18949452 -0.24008451 -0.9654038 1.860433 -0.6521466 0.4353653 -1.8152157 0.07364149
00000000: ed9a d13f c18b 1dbf b475 4bbe bbde 54bf
00000010: 8c17 7cbf 9bc1 03c0 93f0 0340 da86 5540
00000020: 160c 7a3f 6bdd 31bf dce0 bebf f459 1cbe
00000030: bde7 863f 5abe b63f 787a 25bf 6dfc 2e3f
00000040: 13e8 70bd 9906 e63e 6044 54bf 7893 bf3f
00000050: f093 933f f881 cf3e d283 e6be adc1 babf
00000060: 3ad6 59bf 856d adbe c156 a9bf 1194 82be
00000070: 1438 c1be a8d0 84bf 31c9 3cbf a69d fdbe
00000080: 8b67 e5be c166 88be 6b9d 713f 9fc8 74bf
00000090: 69dc a7be defc 7e3f d53a 96bf 22a2 433f
000000a0: 12dd 63bf d397 de3f eb75 f13c fe81 4a3f
000000b0: 77ed 3bbe 34ee e63f fdde 0d40 bf8d 9ebf
000000c0: d4ce 193f 4561 77bf 8080 8dbf c7a0 85bf
000000d0: a212 61bf 2213 7ebf 8af8 79bf 57b9 a83f
000000e0: 35a6 ba3e 5f78 5fbf 838a c2be f852 2bc0
000000f0: dd7d f53c 6dd5 643f 71b9 d23f 7f11 b93f
00000100: e347 0e40 96f2 773f 8a87 d0be f7af b3bf
00000110: 659f bf3e 798a 38bf b4c6 34bf b144 e3be
00000120: bc5b d0be a7a9 a1bf ab10 38bf 208e e6bf
00000130: 1b36 29bf 2eba 00bf d413 92bf 3c5c b1bd
00000140: bdb2 02bf 240f 62bf 9d84 b53f b00a 80bf
00000150: 1fc6 3ebf d81d 813e f5fd 2ebf 4af4 85be
00000160: 9487 22bf 4a43 1ebf bf32 94bf 0eec 16c1
00000170: 7e7f f6be 2cd3 23bf 28dd 69bf 4de0 89bf
00000180: 3bb7 0fbf adbc 4cbf c182 9cbf fb6a 2dbf
00000190: 6a91 4440 2a6a cd3f e654 153f 613f 16bf
000001a0: 5702 803f 8cd6 0040 242c 2a3f 6342 e5bf
000001b0: 42d6 40bf 0438 63bf eba8 09bf 0afe ffbe
000001c0: 5042 b8bf 2652 63bf f3a2 9c3d 41c1 1fbf
000001d0: 980d 6bbf d214 a63e 3f49 303f 1fe9 863d
000001e0: ccd7 aabf b15f 25bf 8aca 233c eb93 6ebf
000001f0: c716 fb3e 7df0 663f a1f1 35bd 8cee 2840
00000200: fd4f c23e 7cf8 923f 9242 093f 1c0f 19bf
00000210: e7d6 e2be 6c57 453f 02c7 66bf 7f7f 833e
00000220: c502 2f40 a55b 6e3f 66fe 6dbf fa82 90bf
00000230: 3263 47bf 4703 993f f325 96bf 528c 5b3f
00000240: da8f a3bf b80d 013f 19d6 0440 2ef3 0e3f
00000250: 2b48 6dbf 7945 33bf 96b4 0040 7cc1 edbd
00000260: f1f3 69bf a5ff 09bf 2408 dcbe 4b63 b5be
00000270: e0cb 6e3f 1817 b73e 82fc 89c0 78b0 9f3f
00000280: 079e 843e 4045 15bf efe7 c2c0 da6d 3bbf
00000290: 5b07 3bbf a11d 2a40 a1e9 ea3f e130 1dc0
000002a0: 3a3f e03f c94d 69bf 40d7 0d40 563b 1240
000002b0: b1b8 54bf c535 a0bf 9f27 25bf 7f77 0cbf
000002c0: 44b6 b0bf af32 0fbf 3675 b43f fad3 923f
000002d0: 5eb1 a1bf 959e 12bf c00b f23f 1635 223f
000002e0: 6a4e 41bf 0c7b 76bf 9a36 98bf 3f49 2940
000002f0: 4605 3c3f c5ba 12bf 9749 7bbf bb68 c8be
00000300: b221 a8bf d266 8ebf 470d 3bc1 8aeb 973e
00000310: 2103 3340 3d75 13bf f226 b23e 8817 87bf
00000320: b71c 503f 030e b33f 8fb8 d8be 7559 1cbf
00000330: 1a12 863e 4fd7 5abf 8c91 dfc0 2cfb 0c40
00000340: e15b 493f dad8 47bf 7165 a7bf 7db7 6dbf
00000350: f5cb 66bf 1064 e63f 7a61 02c0 b0b6 b83f
00000360: 7c6a 773f 2360 0abe 0ce9 5ebf 0634 90bf
00000370: 978d 063f 19ec 263f 1713 6dbf ad38 5f3f
00000380: 9049 9c3f b82c 03bf 06b8 1dbf 9cf5 003f
00000390: 13e9 e8be ec11 ddbe 8f14 12bf ab76 c5be
000003a0: 7ce3 b7be da53 2740 b3cc 9dbf a8eb 8c3e
000003b0: d7ca d9be 94ea 1cbf 209c 1cc1 fa92 be3f
000003c0: a037 8bbf 77c2 8ebf 97d6 2cbf 2b20 a740
000003d0: 15b2 d3bb dfa7 56bf ecb8 32bf f650 4a3d
000003e0: da0a 423e b7d8 75be b424 77bf ab22 ee3f
000003f0: 14f3 26bf 33e8 de3e fd58 e8bf 59d1 963d

net.2.bias f4 [32]
3.6560376 -2.9163387 2.4335802 3.6853845 -2.901265 -2.872632 -0.01942048 0.43804225
5.8289614 5.176837 -2.9131534 -2.894825 3.5204053 -2.8724668 -2.8827496 5.0471363
-2.8653152 3.644758 3.6987417 3.1825836 -0.017107189 -2.666187 1.2259173 3.584647
-0.058240168 -3.120273 -2.9325848 0.5799575 -2.920165 -0.025810866 3.718591 0.9983884
00000000: 85fc 6940 4ba5 3ac0 c7bf 1b40 57dd 6b40
00000010: 53ae 39c0 34d9 37c0 b317 9fbc 1347 e03e
00000020: da86 ba40 a6a8 a540 1b71 3ac0 d044 39c0
00000030: 524e 6140 7fd6 37c0 f87e 38c0 2482 a140
00000040: 5361 37c0 b743 6940 2fb8 6c40 73af 4b40
00000050: 6024 8cbc cfa2 2ac0 dcea 9c3f db6a 6540
00000060: 3e8d 6ebd 8eb2 47c0 78af 3bc0 1878 143f
00000070: fce3 3ac0 4f71 d3bc 65fd 6d40 6296 7f3f

net.4.weight f4 [1, 32]
-0.2161681 0.23433803 -1.328819 -0.46370152 0.6048192 0.17150587 -0.066333964 -2.4178145
-10.71498 -1.6080385 0.435329 0.43410552 -2.2186482 0.3593486 0.3815157 -0.85702366
0.17634067 -0.41648585 -0.59692264 1.6729114 -0.040515713 0.4912292 3.1144495 -0.28017813
-0.094930574 0.90140134 0.6489142 -4.764531 0.330363 -0.0992448 -0.8939321 -9.078068
00000000: 2c5b 5dbe 4ff6 6f3e be16 aabf 496a edbe
00000010: 6ed5 1a3f 3c9f 2f3e 1ada 87bd 79bd 1ac0
00000020: 8f70 2bc1 35d4 cdbf 71e3 de3e 1443 de3e
00000030: 55fe 0dc0 8afc b73e 0756 c33e e765 5bbf
00000040: a692 343e a23d d5be eccf 18bf f621 d63f
00000050: cef3 25bd 6582 fb3e 2453 4740 8273 8fbe
00000060: f66a c2bd 3dc2 663f 3e1f 263f 0a77 98c0
00000070: 5725 a93e dc40 cbbd bcd8 64bf c43f 11c1
